model/keypoint_classifier.tflite (tflite, 6632 bytes, 6 tensors)

sequential/dense/BiasAdd/ReadVariableOp f4 [20]
-0.6286441 -0.6721355 -0.09999747 -0.16707772 -0.39845437 -0.9276931 -0.04981859 -0.7941379
-0.7512988 -0.40698165 -0.6427918 -1.035167 -0.23200436 1.0341969 -1.085212 0.23674938
-0.51308733 -0.9284969 -0.45150825 0.41983432
00000000: d2ee 20bf 1211 2cbf 79cb ccbd 6c16 2bbe
00000010: 3602 ccbe 4c7d 6dbf 940e 4cbd 9f4c 4bbf
00000020: 1e55 40bf e65f d0be 018e 24bf 5a80 84bf
00000030: 8d92 6dbe 9060 843f 3ae8 8abf 6e6e 723e
00000040: b159 03bf f9b1 6dbf 172c e7be 86f4 d63e

sequential/dense_2/BiasAdd/ReadVariableOp f4 [6]
0.077047005 -0.76853514 0.7972663 0.37855121 -0.16674985 -0.1751608
00000000: d2ca 9d3d b8be 44bf a519 4c3f 77d1 c13e
00000010: 79c0 2abe 5a5d 33be

sequential/dense_1/BiasAdd/ReadVariableOp f4 [10]
0.3611161 0.94781595 0.60825366 -0.705383 0.44633952 -0.112254925 0.5273696 -0.1638404
0.61727744 -0.22908238
00000000: 36e4 b83e 11a4 723f 83b6 1b3f fb93 34bf
00000010: 9d86 e43e e9e5 e5bd b201 073f c7c5 27be
00000020: e505 1e3f 9294 6abe

sequential/dense/MatMul f4 [20, 42]
0.2470566 -0.2905837 -0.16331676 0.018566877 -0.25229394 -0.3167868 -0.35631993 -0.3979619
-0.59643644 -0.41276115 -0.013538007 0.19191541 -0.020235676 0.024533518 0.0186673 -0.05878865
0.020147674 -0.11432899 -0.11199655 0.24233167 0.043211102 -0.12846966 0.25252926 -0.10363677
0.25818795 0.49559534 -0.23613513 0.18581088 0.027162088 -0.13796729 0.32658988 0.18920095
0.55903083 1.0119534 -0.25282526 0.0640894 -0.09870719 -0.19067748 0.29010022 0.23092966
0.3960674 0.8247483 -0.048710883 0.15723068 0.78503615 0.7374047 0.50868106 0.1873056
0.5241761 0.139579 0.74810773 0.16608396 -0.065639876 -0.03333193 0.02919454 0.05841752
-0.026208134 0.011814726 -0.037663344 -0.083882965 0.008274413 -0.082745686 -0.10014685 0.022411507
-0.14406253 -0.06768572 -0.18752587 -0.20838441 0.21209686 -0.052263565 -0.1883628 0.03825372
-0.49983487 -0.1147364 -0.61168385 -0.28298467 0.3643663 0.025440827 -0.1321833 0.091778986
-0.5153682 0.06398 -0.67211807 -0.0700421 -0.11367282 0.02938047 0.66053224 0.08529694
0.3025818 0.09458451 0.19827127 0.052239165 0.038131926 0.11756505 -0.99498785 -0.030828983
-0.059547078 -0.14477833 0.20253122 -0.30031344 0.32311717 -0.612991 -1.3969085 0.0012697247
-0.39457938 -0.022749856 0.27423495 -0.06182048 0.39113015 -0.052193224 -1.5361991 0.06694806
-0.32335082 0.03392385 0.47660375 0.02171773 0.739434 0.02605477 -0.8283327 0.09912684
-0.26077354 0.043732554 0.13554536 0.068829075 0.4426341 0.04386381 -0.23561166 0.26875973
-0.3323168 0.39587855 -0.2524225 0.12827826 -0.010463825 0.088530526 0.25351608 -0.00784372
-0.089446045 -0.42194906 0.012145589 -0.2473632 0.024754234 -0.06755725 0.012564636 -0.005463395
0.33920273 -0.5326004 -0.12893154 -0.022970276 -0.14073674 0.2524545 -0.118818514 0.24691719
0.6900581 -0.7250702 -0.00041966722 0.07230125 -0.16645108 0.3201715 -0.12572762 0.31790078
0.6413571 -1.0856779 0.048780397 -0.036732852 -0.14255698 0.37202606 -0.14991264 0.41768876
0.188032 0.091493815 0.3751422 0.63797677 0.21754798 0.061978713 0.29163054 -0.42254287
0.067625344 -0.6851865 -0.3610202 0.0238095 0.11956239 0.0077543147 0.20130081 0.114094675
0.18818967 0.14541195 -0.25043553 0.024916016 0.0022585252 -0.13050963 -0.11893014 0.08346514
-0.49565405 0.2118295 -0.23972031 -0.12190139 0.060519278 -0.2978158 -0.1986141 0.27362722
-0.92256105 0.40539992 0.08224327 -0.27710503 0.13107356 -0.21133994 -0.03533711 0.27431083
-0.49362 0.4564687 -0.012919188 -0.12644236 0.09416166 -0.16777071 0.04346953 -0.3489441
0.050219227 -0.30984837 -0.17283367 -0.13281903 0.15873331 -0.12080325 0.023122817 -0.07732307
-0.040165085 0.022872202 -0.052713536 0.07563808 0.07358506 -0.17636457 0.07392218 -0.12884368
0.0029306763 0.04528013 -0.022665944 0.061077353 -0.0031049673 -0.24171288 0.010902052 -0.15973051
0.012782915 0.06300538 -0.024665907 0.11203396 0.03148417 -0.38736618 0.00027569628 -0.39951622
-0.016751168 0.05509085 -0.017404385 0.13727356 -0.19944254 0.005022764 0.888817 -0.16809753
00000000: 68fc 7c3e 63c7 94be 823c 27be 9019 983c
00000010: ac2c 81be e131 a2be 916f b6be aac1 cbbe
00000020: 0fb0 18bf 6e55 d3be 84ce 5dbc 7985 443e
00000030: 4ac5 a5bc 84fa c83c 2aec 983c 5ecc 70bd
00000040: bc0c a53c 5125 eabd 725e e5bd cb25 783e
00000050: 20fe 303d 8d8d 03be 844b 813e 843f d4bd
00000060: 3631 843e acbe fd3e 68cd 71be 3545 3e3e
00000070: 0783 de3c 4c47 0dbe ca36 a73e e5bd 413e
00000080: a51c 0f3f b087 813f 5072 81be 4e41 833d
00000090: ff26 cabd f540 43be 0488 943e d378 6c3e
000000a0: 59c9 ca3e b422 533f 1085 47bd 1401 213e
000000b0: 21f8 483f 8ec6 3c3f ec38 023f 0acd 3f3e
000000c0: 6830 063f cced 0e3e fd83 3f3f ea11 2a3e
000000d0: 336e 86bd 1087 08bd 6329 ef3c 3647 6f3d
000000e0: 71b2 d6bc 8d92 413c e144 1abd d5ca abbd
000000f0: 6791 073c 9276 a9bd cb19 cdbd 5698 b73c
00000100: 2185 13be d09e 8abd c806 40be b962 55be
00000110: eb2f 593e 5212 56bd 2ee2 40be efaf 1c3d
00000120: 5bea ffbe ebfa eabd 5097 1cbf 5ee3 90be
00000130: 388e ba3e 4869 d03c 0f5b 07be 9ff6 bb3d
00000140: 2cef 03bf f207 833d ee0f 2cbf 3c72 8fbd
00000150: 4ccd e8bd 50af f03c a418 293f 29b0 ae3d
00000160: 00ec 9a3e 86b5 c13d a007 4b3e bcf8 553d
00000170: 3930 1c3d f2c5 f03d 86b7 7ebf 108d fcbc
00000180: a3e7 73bd c540 14be 5864 4f3e afc2 99be
00000190: 9d6f a53e faec 1cbf e6cd b2bf e46c a63a
000001a0: 4f06 cabe e85d babc 8668 8c3e 7937 7dbd
000001b0: 3642 c83e 90c8 55bd 2ca2 c4bf 111c 893d
000001c0: 3d8e a5be bcf3 0a3d 6805 f43e 62e9 b13c
000001d0: 8c4b 3d3f d070 d53c 9d0d 54bf 0303 cb3d
000001e0: 1c84 85be e820 333d 67cc 0a3e 42f6 8c3d
000001f0: f0a0 e23e 8aaa 333d 2f44 71be e09a 893e
00000200: 6d25 aabe 98b0 ca3e 863d 81be 605b 033e
00000210: 7770 2bbc 7e4f b53d dccc 813e f282 00bc
00000220: 7d2f b7bd b509 d8be 4bfe 463c c74c 7dbe
00000230: 64c9 ca3c 755b 8abd e7db 4d3c 4706 b3bb
00000240: fbab ad3e 8058 08bf a106 04be 292c bcbc
00000250: 4b1d 10be b741 813e 1f57 f3bd dcd7 7c3e
00000260: a6a7 303f 339e 39bf c806 dcb9 ae12 943d
00000270: 2772 2abe 85ed a33e bebe 00be e4c3 a23e
00000280: fb2f 243f 7ef7 8abf f4cd 473d 3075 16bd
00000290: 75fa 11be 337a be3e b382 19be 4ddb d53e
000002a0: 768b 403e 1c61 bb3d a312 c03e 7252 233f
000002b0: e6c4 5e3e 64dd 7d3d 9950 953e 8a57 d8be
000002c0: 287f 8a3d 6268 2fbf a4d7 b8be 240c c33c
000002d0: 20dd f43d e817 fe3b cd21 4e3e 78aa e93d
000002e0: cbb4 403e dfe6 143e 1639 80be ac1c cc3c
000002f0: c403 143b 51a4 05be a591 f3bd c5ef aa3d
00000300: 5ec6 fdbe d5e9 583e 3e79 75be 70a7 f9bd
00000310: 10e3 773d 507b 98be 7f61 4bbe de18 8c3e
00000320: f62c 6cbf 9490 cf3e 296f a83d b6e0 8dbe
00000330: 2638 063e 7f69 58be a5bd 10bd 7872 8c3e
00000340: c3bb fcbe 44b6 e93e 00ab 53bc 1b7a 01be
00000350: d4d7 c03d 16cc 2bbe 1b0d 323d cda8 b2be
00000360: adb2 4d3d 72a4 9ebe 4ffb 30be b601 08be
00000370: fc8a 223e b267 f7bd 106c bd3c 8f5b 9ebd
00000380: 2584 24bd 7c5e bb3c 26ea 57bd 23e8 9a3d
00000390: c4b3 963d ea98 34be 8364 973d 99ef 03be
000003a0: 9710 403b a877 393d eead b9bc 3f2c 7a3d
000003b0: b57c 4bbb 9583 77be 859e 323c 6590 23be
000003c0: 6e6f 513c f708 813d 2810 cabc 1072 e53d
000003d0: 8cf5 003d dc54 c6be 548b 9039 648d ccbe
000003e0: bf39 89bc f1a6 613d a493 8ebc 7191 0c3e
000003f0: aa3a 4cbe 0096 a43b 8389 633f c221 2cbe

sequential/dense_1/MatMul f4 [10, 20]
0.08289299 0.5342678 0.66847646 0.6154436 0.718548 -0.115536146 1.148086 0.1701812
-0.06600836 0.8837529 0.029568661 0.033723008 0.476567 1.1570958 -0.27807498 0.83562374
-0.04263284 0.47568595 -0.17795941 0.772126 -0.5422202 -0.40073183 -0.13114356 0.79845643
-0.06485943 0.23430178 -0.059445657 -0.918983 0.47944635 -0.9517974 0.7137579 0.9510787
-0.48034725 0.009558516 -0.23573406 0.51214117 -0.19795562 -1.1287432 -0.03023812 -0.40644208
1.2024744 0.31499416 0.67562336 -0.798107 -0.05137643 -0.8808518 0.06507298 0.60980904
0.24199045 0.17060468 0.52123255 -0.04678576 -1.0192989 -0.8417748 0.65342486 -0.34897932
1.1612359 0.989725 1.090376 0.070390165 0.8682006 0.5053998 -0.048413444 0.14759305
0.9137774 -0.81197995 -0.06712234 -0.15639757 -0.17583297 0.029499443 -0.119631 -0.623799
0.9726841 0.67107683 0.2393184 0.27075928 0.031021887 -0.43403828 0.5866188 0.32452402
-0.49935183 0.23490044 -0.1626413 0.5118028 -0.15154561 0.94778234 -0.6411118 -0.009081229
0.11093647 0.55147696 0.056187958 -0.4149412 0.70029026 0.21458805 0.36038437 -0.97504395
0.18823281 0.05583849 0.18870105 -0.75094587 0.26555616 1.0347599 0.0925261 0.06895071
0.72569746 0.53243184 0.14007163 0.101713836 0.9205353 0.45762038 0.59638464 0.73526055
-0.20805955 -0.070445344 0.46917358 0.06542962 0.025343416 0.43488485 0.035569236 0.031137431
-0.007861869 0.7386934 0.15952726 -0.01629698 -0.42025942 -0.33398202 -0.035456352 -0.042765595
1.1038516 -0.2230239 0.47679952 0.15588789 0.3183659 -0.3513768 -0.36971018 0.012310221
0.75635463 0.3713322 0.53734833 -0.0032407441 -0.07529934 -0.050605334 0.3223124 -0.1633983
-0.09333048 0.37462428 -0.37936586 0.7361696 -0.016638855 -0.16023088 0.0009869471 -0.18933256
-0.6971861 -0.0879504 0.7664103 -0.22099619 0.10656981 -0.10525001 0.019035613 0.77952516
0.18775856 -0.027062658 -0.84794366 0.09390211 -0.2991869 0.73967093 0.1788276 0.14724712
-0.4251157 -0.8846111 -0.1619928 -0.7862237 0.5809725 -0.013710644 0.0021440766 -0.3207262
0.17054807 0.2887635 0.21654503 -0.19876118 0.044465553 -0.0409315 0.53652614 -0.04126678
-0.081977814 0.95632064 0.33361533 1.0313458 0.039246164 0.04369024 0.045053717 0.19420849
0.04891847 0.031796206 1.5314683 0.20242275 -0.17513528 0.75793135 0.046719007 0.08599353
00000000: cdc3 a93d c6c5 083f 4621 2b3f b68d 1d3f
00000010: c3f2 373f 379e ecbd 7bf4 923f fb43 2e3e
00000020: 642f 87bd a13d 623f fa39 f23c 2321 0a3d
00000030: 9700 f43e b71b 943f d85f 8ebe 70eb 553f
00000040: c69f 2ebd 1c8d f33e fe3a 36be 0daa 453f
00000050: f1ce 0abf b92c cdbe 7f4a 06be a467 4c3f
00000060: 05d5 84bd ceec 6f3e 4a7d 73bd 7842 6bbf
00000070: fe79 f53e ffa8 73bf d6b8 363f e579 733f
00000080: 13f0 f5be 529b 1c3c 4564 71be af1b 033f
00000090: e1b4 4abe a87a 90bf efb5 f7bc 2d19 d0be
000000a0: aeea 993f ea46 a13e a7f5 2c3f be50 4cbf
000000b0: 1770 52bd 817f 61bf fc44 853d 721c 1c3f
000000c0: 58cc 773e feb2 2e3e 7f6f 053f 6da2 3fbd
000000d0: 6378 82bf 8e7e 57bf da46 273f 6bad b2be
000000e0: 61a3 943f 9e5e 7d3f 7191 8b3f b828 903d
000000f0: 6542 5e3f e261 013f 2d4d 46bd a222 173e
00000100: 51ed 693f ebdd 4fbf 7077 89bd af26 20be
00000110: 8f0d 34be d1a8 f13c 1901 f5bd 4bb1 1fbf
00000120: d301 793f b1cb 2b3f e20f 753e f6a0 8a3e
00000130: 9d21 fe3c 443a debe a62c 163f 0328 a63e
00000140: 0bab ffbe be89 703e 718b 26be 8205 033f
00000150: c62e 1bbe dda1 723f e71f 24bf 6fc9 14bc
00000160: a932 e33d 982d 0d3f 5825 663d 2c73 d4be
00000170: 3946 333f f8bc 5b3e 4d84 b83e 7b9c 79bf
00000180: 1ac0 403e e7b6 643d d93a 413e fd3d 40bf
00000190: faf6 873e 0373 843f 537e bd3d 0836 8d3d
000001a0: 4fc7 393f 744d 083f f06e 0f3e 584f d03d
000001b0: 34a8 6b3f 384d ea3e aaac 183f 093a 3c3f
000001c0: 900d 55be a645 90bd 8537 f03e f7ff 853d
000001d0: ff9c cf3c 3aa9 de3e 0cb1 113d ed13 ff3c
000001e0: 12cf 00bc 031b 3d3f 1d5b 233e 3f81 85bc
000001f0: 3e2c d7be b1ff aabe ae3a 11bd fa2a 2fbd
00000200: 024b 8d3f 6160 64be 111f f43e 13a1 1f3e
00000210: db00 a33e a9e7 b3be a74a bdbe cfb0 493c
00000220: 75a0 413f 411f be3e a98f 093f aa62 54bb
00000230: 8a36 9abd 8a47 4fbd 2206 a53e e251 27be
00000240: 0d24 bfbd c1ce bf3e 3e3c c2be 9c75 3c3f
00000250: 354e 88bc 9013 24be 735c 813a 65e0 41be
00000260: ca7a 32bf 571f b4bd 7733 443f d34c 62be
00000270: 4641 da3d 518d d7bd 93f0 9b3c f68e 473f
00000280: c843 403e 82b2 ddbc d612 59bf c04f c03d
00000290: 062f 99be 135b 3d3f 951e 373e f3c7 163e
000002a0: c4a8 d9be e075 62bf 71e1 25be f545 49bf
000002b0: 9dba 143f 9ca2 60bc a383 0c3b 3936 a4be
000002c0: 27a4 2e3e cfd8 933e fbbd 5d3e 0d88 4bbe
000002d0: 8321 363d caa7 27bd c759 093f 5b07 29bd
000002e0: fce3 a7bd 6ed1 743f a1cf aa3e 2403 843f
000002f0: 96c0 203d 89f4 323d 3f8a 383d 97de 463e
00000300: bc5e 483d bd3c 023d 2707 c43f e947 4f3e
00000310: aa56 33be ca07 423f 6e5c 3f3d 601d b03d

sequential/dense_2/MatMul f4 [6, 10]
0.19567765 -0.22229919 0.21663308 1.1948819 -0.6764543 0.4307189 0.7778355 -1.3131424
-0.785298 -0.8724361 0.14893547 0.30459562 -0.9012547 0.008876657 0.49905825 1.0732757
-0.369657 0.21782005 0.5786585 1.1974007 0.6617212 0.48897457 -0.6442669 -0.8630631
0.28082815 -1.418581 -1.0657398 0.4785386 -0.64220035 0.10519337 -1.8898715 0.9306772
-0.86500365 -0.48621997 0.26697505 0.5630391 0.3454394 -0.6824692 -1.0084711 -1.6699096
-0.4432973 -1.229284 0.4504723 -0.26804638 -1.5622568 -0.79495543 0.31687006 0.22857252
0.7064165 0.48193568 -1.0231267 -1.11973 0.52122885 -0.060249556 -0.24665964 0.00036502193
0.1555886 0.4388078 -0.2247212 0.56087923
00000000: b95f 483e 66a2 63be 10d5 5d3e e4f1 983f
00000010: 1c2c 2dbf 3087 dc3e 3a20 473f 0d15 a8bf
00000020: 4a09 49bf f957 5fbf 8a82 183e f5f3 9b3e
00000030: a1b8 66bf 666f 113c 9084 ff3e 1961 893f
00000040: af43 bdbe 380c 5f3e f722 143f 6d44 993f
00000050: 9066 293f e05a fa3e adee 24bf b4f1 5cbf
00000060: b5c8 8f3e 1094 b5bf 296a 88bf 0303 f53e
00000070: 3e67 24bf 9f6f d73d 4fe7 f1bf dc40 6e3f
00000080: e170 5dbf d3f1 f8be f4b0 883e 5523 103f
00000090: 6fdd b03e 4db6 2ebf 9515 81bf 99bf d5bf
000000a0: ddf7 e2be 2e59 9dbf 4ea4 e63e 603d 89be
000000b0: 08f8 c7bf 3382 4bbf cb3c a23e ea0e 6a3e
000000c0: b6d7 343f 46c0 f63e d1f5 82bf 5053 8fbf
000000d0: 416f 053f 3dc8 76bd 5894 7cbe 6a60 bf39
000000e0: 9e52 1f3e 6aab e03e 501d 66be c895 0f3f
